input_model_v1.pth (torch, 2295 bytes, 4 tensors)

fc1.weight f4 [32, 1]
00000000: a73a 7d3e 342f 783f b417 2b3f 3256 24bf
00000010: 3813 1e3f 70d1 94be b85f 47be 5c0d 22bf
00000020: f8f7 37bf 313d 163f 838c bb3e 6377 013f
00000030: 23df 313f b293 413f dc8c aebe 1c19 d8be
00000040: 65a2 85bf ecdc 18bf de20 323f 3ee8 3ebf
00000050: 009a 5dbb 602c 45be 4712 fd3e 90cd a9bd
00000060: c4a9 b9be 620c 3c3f 2c76 083f 9693 5f3f
00000070: c809 4e3f fcf7 8c3f 78b6 0f3e e7dd e33e
0.24729405 0.96947026 0.66833043 -0.64194024 0.61748075 -0.29066038 -0.19470108 -0.63301635
-0.71862745 0.5868712 0.3663064 0.50572795 0.69481105 0.7561599 -0.34091842 -0.42206657
-1.0440184 -0.597121 0.695814 -0.74573123 -0.0033813715 -0.19255209 0.49428007 -0.08291161
-0.36262333 0.73456395 0.53305316 0.87334573 0.80483675 1.1013179 0.1403445 0.44505236

fc1.bias f4 [32]
00000000: 2da1 bc3c 362c 06bf 702d 5fbf a0ff c7bd
00000010: b498 a0be cecc 24bf c431 0c3f 56d8 35bf
00000020: 785f 82bd 8fff ab3e d1c7 53be 9f62 8bbe
00000030: 36d7 ccbe e2e4 7dbf 6ad2 19bf 749f b1be
00000040: 8180 4d3f 50f9 35bf 966f 40bf 6037 80bd
00000050: 74e5 ccbe 94b1 2abf b155 f23d 08f1 5ebe
00000060: 28f8 f5be cc15 a93e 61cf 2c3f fe72 263f
00000070: 5600 60bf 1ac9 333d 02a1 2cbf 4073 123f
0.023026073 -0.5241121 -0.8717871 -0.097655535 -0.31366503 -0.6437501 0.54763436 -0.7103323
-0.063658655 0.33593413 -0.20681693 -0.2722368 -0.40007943 -0.9917737 -0.6008669 -0.34691966
0.80274206 -0.71083546 -0.75170267 -0.06260562 -0.4001881 -0.6667721 0.118327506 -0.21771634
-0.4804089 0.33024442 0.67503935 0.65019214 -0.8750051 0.043892957 -0.6743318 0.5720711

fc2.weight f4 [3, 32]
00000000: 8773 f63b 4209 133f 7ad5 a63d 6e19 a7bd
00000010: f4a8 1d3f 319a 98bd 8045 213e 172a 1e3e
00000020: 1dcc 7fbd 042c 5dbd 4262 de3d 2adf a33e
00000030: f8c2 463e c24a 0fbe 3888 323d 5d9f 2e3e
00000040: b893 41be 60b7 91bc b41c 12bd 3a52 b13d
00000050: 4884 983c c2c5 ba3d 8a6c de3c 0752 223e
00000060: ce39 dd3d 8f12 5a3d 58a4 97bd 0ba0 413d
00000070: d064 07bc 7f1a 223e 461d c53d a264 693e
00000080: db9f 7e3d 9c05 123f bf4d 273e 8424 6dbd
00000090: cf20 483d e249 a03d eaae 0dbe 0411 42bd
000000a0: 540d 25bd cc91 05bd 6bf7 1f3e 7e3e 373e
000000b0: dda2 0b3f 634d 01be 00ac 0cb9 4ad7 be3d
000000c0: 9214 11be 5277 c33d 05d1 c9bd 72da f03d
000000d0: e59a 133e ba74 dbbd 3d0a a33d f419 a4bd
000000e0: 1f6a 103e 1c3e 0abd 632a 2e3e f940 ea3d
000000f0: 1429 893d c753 0a3e 004b 593c f8ed edbd
00000100: f386 f03c 30ad 1abe 5a20 e83d b2e4 f4bd
00000110: 6f82 acbd 2a54 30be ad63 373d 9c7a 193d
00000120: 540b 853d 5fe9 603e e94b 4c3e e436 733e
00000130: 42d0 b73e f91d 16be ba47 9d3d ec26 f9bd
00000140: f924 3ebe 81cb 33be 1c55 0dbd 3cf5 4d3d
00000150: 3e56 c2bd 6db0 303e e7df 2c3e c664 b83d
00000160: 043e 543d 0dee 803d 5798 09be 219f 1c3e
00000170: ccfb 603d a9ea ac3e efe6 12be d1ae 923d
0.007521096 0.57436 0.08146186 -0.08159147 0.61585927 -0.07451285 0.15749168 0.15445744
-0.062450517 -0.053997055 0.10858585 0.32006198 0.19410312 -0.13993362 0.04358694 0.1705298
-0.18904006 -0.017787635 -0.035671905 0.086582616 0.018617764 0.091197506 0.027151365 0.15851603
0.10802041 0.053240355 -0.07404393 0.04727177 -0.008263782 0.1583042 0.09624724 0.22792295
0.06216417 0.5703981 0.16338252 -0.057896152 0.048859414 0.07826592 -0.13836256 -0.04737951
-0.040295914 -0.032609746 0.15621726 0.17894933 0.54545385 -0.12627177 -0.00013415515 0.09318407
-0.14168003 0.09544243 -0.098543204 0.11760415 0.14414556 -0.10715623 0.07960937 -0.08012763
0.14102982 -0.03375064 0.17008357 0.11438174 0.06697288 0.13508521 0.01326251 -0.116176546
0.029361224 -0.15105128 0.113342956 -0.11957683 -0.08423316 -0.17219606 0.044772793 0.037470445
0.06496301 0.21964024 0.19950832 0.23751408 0.35901076 -0.14659871 0.076796964 -0.12165627
-0.18568791 -0.175581 -0.034504995 0.0502827 -0.09489106 0.17254801 0.16882287 0.09003596
0.051816955 0.062954046 -0.1343702 0.15295078 0.054927632 0.33772781 -0.14345907 0.0716225

fc2.bias f4 [3]
00000000: 8866 6b39 5aee 343e 423e 2cbd
0.00022449542 0.17669049 -0.04205156
