output_model_v2.pth (torch, 2045 bytes, 3 tensors)

fc1.weight f4 [32, 1]
00000000: e82e 863f ee75 4ebf e725 06bf 031b 763f
00000010: 3e87 553f 4597 52be b805 cc3c 50c7 e6bd
00000020: 8887 22be 2424 ae3f efa6 22bf b812 f1be
00000030: c01b 203d 1b85 263e b225 103e e6d3 663f
00000040: 5627 bcbe d4c5 d13e f762 493f e37e 153f
00000050: 0082 e0be 568d 3a3f cd25 253c 9050 453f
00000060: 57b7 a83d d6ff 2f3f f4a4 40bf 4f01 16c0
00000070: 006a 553c 622a 71be 157f 0b3f a1c3 523f
1.0483065 -0.80648696 -0.52401584 0.96134967 0.8340949 -0.20565517 0.02490507 -0.112684846
-0.15872014 1.3604779 -0.6353597 -0.47084594 0.039088964 0.16261713 0.1407688 0.9016708
-0.3674876 0.40971243 0.78666633 0.5839674 -0.43849182 0.7287191 0.010079813 0.77076054
0.08238094 0.6874975 -0.752517 -2.3438299 0.013025761 -0.23551324 0.54490787 0.82329756

fc1.bias f4 [32]
00000000: 5ce2 6c3f 4270 58bf 26a7 2e3f 95bc 04bf
00000010: b568 ad3e 3d40 073d 35b4 193f 28cb 05bf
00000020: 3854 12be bb82 45bf 8ea2 cf3d 8045 1fbe
00000030: 10db a5be d492 afbd 369d b43e 0a90 34bf
00000040: a5b0 693f 5a61 293f af1c f33e 4d59 a0be
00000050: 6d95 e13e 79a8 3a3f a930 a13d 78da d9be
00000060: cbad 833e 53dd c93e c807 74be 3dfc be3e
00000070: 9a1c 4cbf 8509 2a3f 3b21 003e 6acf b7bd
0.92532897 -0.8454629 0.682238 -0.51850253 0.33868948 0.033020247 0.600406 -0.52263117
-0.1428994 -0.77152604 0.10138427 -0.15553856 -0.32393694 -0.08572927 0.35276192 -0.70532286
0.91285163 0.6616417 0.4748282 -0.3131813 0.44059315 0.7291332 0.07870609 -0.4254949
0.2571853 0.3942667 -0.23831093 0.37301818 -0.7973114 0.66420776 0.12512676 -0.08975108

fc2.weight f4 [1, 32]
00000000: 6a8f 553e f932 293e 3e49 87bd 1091 b83e
00000010: 3787 123e 88d2 94bd faaf 7ebd 36d5 a9bd
00000020: e59d 1f3e bb47 3e3f 9dcd 40be ca7a f83d
00000030: 48bc c93c d6db 853d 6a3d 4f3d a348 08bf
00000040: 0ba1 c3bd cb32 ef3d 8826 3bbc 702d 9d3d
00000050: 571c 9e3e 75fe d6bd 6d77 8bbd bc86 163e
00000060: 148a 9d3c 504c c6bd f8c0 81bd 6d44 f7be
00000070: 931f 243e af7d 9cbd f255 1b3e ca27 2cbc
0.2085549 0.16523351 -0.06605767 0.36048174 0.14309393 -0.07266718 -0.062179543 -0.0829262
0.15587576 0.743282 -0.18828435 0.12132795 0.024625912 0.06536071 0.05059568 -0.53235835
-0.09552201 0.1167961 -0.011422761 0.07674682 0.30880997 -0.104977526 -0.06809888 0.14699835
0.01923088 -0.09682524 -0.06335634 -0.48294392 0.1602767 -0.0764116 0.15169504 -0.010507533
